…
\paperw11900\paperh16840\margl1440\margr1440\vieww27240\viewh16580\viewkind0
\pard\tx720\tx1440\tx2160\tx2880\tx3600\tx4320\tx5040\tx5760\tx6480\tx7200\tx7920\tx8640\pardirnatural\partightenfactor0

\f0\b\fs24 \cf0 \ul \ulc0 NETWORK 6\ulnone : FINAL NETWORK
\f1\b0\fs20 \
__________________________________________________________________________________________________\
Layer (type)                    Output Shape         Param #     Connected to                     \
==================================================================================================\
claim_1 (InputLayer)            (None, 50)           0                                            \
__________________________________________________________________________________________________\
evidence_1 (InputLayer)         (None, 200)          0                                            \
__________________________________________________________________________________________________\
claim_2 (Embedding)             (None, 50, 50)       1023300     claim_1[0][0]                    \
__________________________________________________________________________________________________\
evidence_2 (Embedding)          (None, 200, 50)      2426800     evidence_1[0][0]                 \
__________________________________________________________________________________________________\
claim_3_encoding (Bidirectional (None, 50, 50)       15200       claim_2[0][0]                    \
__________________________________________________________________________________________________\
evidence_3_encoding (Bidirectio (None, 200, 50)      15200       evidence_2[0][0]                 \
__________________________________________________________________________________________________\
claim_4_attention (Dense)       (None, 50, 50)       2550        claim_3_encoding[0][0]           \
__________________________________________________________________________________________________\
evidence_4_attention (Dense)    (None, 200, 50)      2550        evidence_3_encoding[0][0]        \
__________________________________________________________________________________________________\
claim_5 (Multiply)              (None, 50, 50)       0           claim_3_encoding[0][0]           \
                                                                 claim_4_attention[0][0]          \
__________________________________________________________________________________________________\
evidence_5 (Multiply)           (None, 200, 50)      0           evidence_3_encoding[0][0]        \
                                                                 evidence_4_attention[0][0]       \
__________________________________________________________________________________________________\
claim_6_sum (Lambda)            (None, 50)           0           claim_5[0][0]                    \
__________________________________________________________________________________________________\
evidence_6_sum (Lambda)         (None, 50)           0           evidence_5[0][0]                 \
__________________________________________________________________________________________________\
claim_7 (Reshape)               (None, 1, 50)        0           claim_6_sum[0][0]                \
__________________________________________________________________________________________________\
evidence_7 (Reshape)            (None, 1, 50)        0           evidence_6_sum[0][0]             \
__________________________________________________________________________________________________\
claim_evi_1 (Concatenate)       (None, 2, 50)        0           claim_7[0][0]                    \
                                                                 evidence_7[0][0]                 \
__________________________________________________________________________________________________\
claim_evi_2_encoding (Bidirecti (None, 2, 50)        15200       claim_evi_1[0][0]                \
__________________________________________________________________________________________________\
claim_evi_3_attention (Dense)   (None, 2, 50)        2550        claim_evi_2_encoding[0][0]       \
__________________________________________________________________________________________________\
claim_evi_4 (Multiply)          (None, 2, 50)        0           claim_evi_2_encoding[0][0]       \
                                                                 claim_evi_3_attention[0][0]      \
__________________________________________________________________________________________________\
claim_evi_5_sum (Lambda)        (None, 50)           0           claim_evi_4[0][0]                \
__________________________________________________________________________________________________\
out (Dense)                     (None, 1)            51          claim_evi_5_sum[0][0]            \
==================================================================================================\
Total params: 3,503,401\
Trainable params: 53,301\
Non-trainable params: 3,450,100\
__________________________________________________________________________________________________\
None\
Minibatch size: 30\
Train on 98514 samples, validate on 500 samples\
…
 - 2674s - loss: 0.6005 - acc: 0.7027 - f1: 0.8217 - precision: 0.7046 - recall: 0.9947 - val_loss: 0.5358 - val_acc: 0.7500 - val_f1: 0.8357 - val_precision: 0.7647 - val_recall: 0.9333\

\f0\b Loss: 55.55%\
Accuracy: 73.62%\
F1 score: 83.04%\
Precision: 75.11%\
Recall: 93.55%
\fs24 \ul \
\
\
NETWORK 4\ulnone : Full training FAILED
\f1\b0\fs20 \
__________________________________________________________________________________________________\
Layer (type)                    Output Shape         Param #     Connected to                     \
==================================================================================================\
claim_1 (InputLayer)            (None, 25, 50)       0                                            \
__________________________________________________________________________________________________\
evidence_1 (InputLayer)         (None, 100, 50)      0                                            \
__________________________________________________________________________________________________\
claim_2_encoding (Bidirectional (None, 25, 100)      40400       claim_1[0][0]                    \
__________________________________________________________________________________________________\
evidence_2_encoding (Bidirectio (None, 100, 100)     40400       evidence_1[0][0]                 \
__________________________________________________________________________________________________\
claim_3_attention (Dense)       (None, 25, 1)        101         claim_2_encoding[0][0]           \
__________________________________________________________________________________________________\
time_distributed_1 (TimeDistrib (None, 100, 1)       101         evidence_2_encoding[0][0]        \
__________________________________________________________________________________________________\
claim_4 (Flatten)               (None, 25)           0           claim_3_attention[0][0]          \
__________________________________________________________________________________________________\
evidence_4 (Flatten)            (None, 100)          0           time_distributed_1[0][0]         \
__________________________________________________________________________________________________\
claim_5 (Activation)            (None, 25)           0           claim_4[0][0]                    \
__________________________________________________________________________________________________\
evidence_5 (Activation)         (None, 100)          0           evidence_4[0][0]                 \
__________________________________________________________________________________________________\
claim_6 (RepeatVector)          (None, 100, 25)      0           claim_5[0][0]                    \
__________________________________________________________________________________________________\
evidence_6 (RepeatVector)       (None, 100, 100)     0           evidence_5[0][0]                 \
__________________________________________________________________________________________________\
claim_7 (Permute)               (None, 25, 100)      0           claim_6[0][0]                    \
__________________________________________________________________________________________________\
evidence_7 (Permute)            (None, 100, 100)     0           evidence_6[0][0]                 \
__________________________________________________________________________________________________\
claim_8 (Multiply)              (None, 25, 100)      0           claim_2_encoding[0][0]           \
                                                                 claim_7[0][0]                    \
__________________________________________________________________________________________________\
evidence_8 (Multiply)           (None, 100, 100)     0           evidence_2_encoding[0][0]        \
                                                                 evidence_7[0][0]                 \
__________________________________________________________________________________________________\
claim_9_sum (Lambda)            (None, 100)          0           claim_8[0][0]                    \
__________________________________________________________________________________________________\
evidence_9_sum (Lambda)         (None, 100)          0           evidence_8[0][0]                 \
__________________________________________________________________________________________________\
claim_evidence_1 (Concatenate)  (None, 200)          0           claim_9_sum[0][0]                \
                                                                 evidence_9_sum[0][0]             \
__________________________________________________________________________________________________\
claim_evidence_2 (Dense)        (None, 1)            201         claim_evidence_1[0][0]           \
==================================================================================================\
Total params: 81,203\
Trainable params: 81,203\
Non-trainable params: 0\
__________________________________________________________________________________________________\
None\
Minibatch size: 30\
Evidence size: 100 tokens\
Claim size: 25 tokens\
Train on 109810 samples, validate on 500 samples\
…
 - 1413s - loss: 0.5691 - acc: 0.7295 - f1: 0.8402 - precision: 0.7311 - recall: 0.9949 - val_loss: 0.7952 - val_acc: 0.4980 - val_f1: 0.6583 - val_precision: 0.4943 - val_recall: 1.0000\

\f0\b Loss: 79.17%\
Accuracy: 50.31%\
F1 score: 66.14%\
Precision: 50.16%\
Recall: 99.34%\
\
\

\fs24 \ul NETWORK 3\ulnone : Dropout test (small database) FAILED
\f1\b0\fs20 \
__________________________________________________________________________________________________\
Layer (type)                    Output Shape         Param #     Connected to                     \
==================================================================================================\
claim_1 (InputLayer)            (None, 25, 50)       0                                            \
__________________________________________________________________________________________________\
evidence_1 (InputLayer)         (None, 200, 50)      0                                            \
__________________________________________________________________________________________________\
claim_2_encoding (Bidirectional (None, 25, 100)      40400       claim_1[0][0]                    \
__________________________________________________________________________________________________\
evidence_2_encoding (Bidirectio (None, 200, 100)     40400       evidence_1[0][0]                 \
__________________________________________________________________________________________________\
claim_3_attention (Dense)       (None, 25, 1)        101         claim_2_encoding[0][0]           \
__________________________________________________________________________________________________\
time_distributed_1 (TimeDistrib (None, 200, 1)       101         evidence_2_encoding[0][0]        \
__________________________________________________________________________________________________\
claim_4 (Flatten)               (None, 25)           0           claim_3_attention[0][0]          \
__________________________________________________________________________________________________\
evidence_4 (Flatten)            (None, 200)          0           time_distributed_1[0][0]         \
__________________________________________________________________________________________________\
claim_5 (Activation)            (None, 25)           0           claim_4[0][0]                    \
__________________________________________________________________________________________________\
evidence_5 (Activation)         (None, 200)          0           evidence_4[0][0]                 \
__________________________________________________________________________________________________\
claim_6 (RepeatVector)          (None, 100, 25)      0           claim_5[0][0]                    \
__________________________________________________________________________________________________\
evidence_6 (RepeatVector)       (None, 100, 200)     0           evidence_5[0][0]                 \
__________________________________________________________________________________________________\
claim_7 (Permute)               (None, 25, 100)      0           claim_6[0][0]                    \
__________________________________________________________________________________________________\
evidence_7 (Permute)            (None, 200, 100)     0           evidence_6[0][0]                 \
__________________________________________________________________________________________________\
claim_8 (Multiply)              (None, 25, 100)      0           claim_2_encoding[0][0]           \
                                                                 claim_7[0][0]                    \
__________________________________________________________________________________________________\
evidence_8 (Multiply)           (None, 200, 100)     0           evidence_2_encoding[0][0]        \
                                                                 evidence_7[0][0]                 \
__________________________________________________________________________________________________\
claim_9_sum (Lambda)            (None, 100)          0           claim_8[0][0]                    \
__________________________________________________________________________________________________\
evidence_9_sum (Lambda)         (None, 100)          0           evidence_8[0][0]                 \
__________________________________________________________________________________________________\
claim_evidence_1 (Concatenate)  (None, 200)          0           claim_9_sum[0][0]                \
                                                                 evidence_9_sum[0][0]             \
__________________________________________________________________________________________________\
claim_evidence_2 (Dense)        (None, 1)            201         claim_evidence_1[0][0]           \
==================================================================================================\
Total params: 81,203\
Trainable params: 81,203\
Non-trainable params: 0\
__________________________________________________________________________________________________\
None\
Minibatch size: 100\
Evidence size: 200 tokens\
Claim size: 25 tokens\
Train on 7407 samples, validate on 500 samples\
…
